ConvNet(
  (layer1): Sequential(
    (0): Conv1d(1, 96, kernel_size=(3,), stride=(1,))
    (1): BatchNorm1d(96, eps=1e-05, momentum=0.1, affine=True, track_running_stats=True)
    (2): ReLU()
  )
  (layer2): Sequential(
    (0): Conv1d(96, 96, kernel_size=(3,), stride=(1,))
    (1): BatchNorm1d(96, eps=1e-05, momentum=0.1, affine=True, track_running_stats=True)
    (2): ReLU()
  )
  (layer3): Sequential(
    (0): Conv1d(96, 192, kernel_size=(3,), stride=(2,))
    (1): BatchNorm1d(192, eps=1e-05, momentum=0.1, affine=True, track_running_stats=True)
    (2): ReLU()
  )
  (layer4): Sequential(
    (0): Conv1d(192, 192, kernel_size=(3,), stride=(1,))
    (1): BatchNorm1d(192, eps=1e-05, momentum=0.1, affine=True, track_running_stats=True)
    (2): ReLU()
  )
  (layer5): Sequential(
    (0): Conv1d(192, 192, kernel_size=(3,), stride=(1,))
    (1): BatchNorm1d(192, eps=1e-05, momentum=0.1, affine=True, track_running_stats=True)
    (2): ReLU()
  )
  (layer6): Sequential(
    (0): Conv1d(192, 192, kernel_size=(3,), stride=(2,))
    (1): BatchNorm1d(192, eps=1e-05, momentum=0.1, affine=True, track_running_stats=True)
    (2): ReLU()
  )
  (fc): Linear(in_features=2112, out_features=2, bias=True)
)
Adam (
Parameter Group 0
    amsgrad: False
    betas: (0.9, 0.999)
    eps: 1e-08
    lr: 0.0001
    weight_decay: 0
)
Learning rate: 0.0001
Epoch [1/10], Step [15/1000], Loss: 0.4535, Accuracy:0.82
Epoch [1/10], Step [30/1000], Loss: 0.1732, Accuracy:0.86
Epoch [1/10], Step [45/1000], Loss: 0.2403, Accuracy:0.88
Epoch [1/10], Step [60/1000], Loss: 0.4377, Accuracy:0.88
…
